.dart_tool/chrome-device/Default/optimization_guide_prediction_model_downloads/0f1ef8f3-6da2-41d5-ad1d-d4354dd536d5/model.tflite (tflite, 410364 bytes, 166 tensors)

context_transformer_0/bottleneck_input/norm/add f4 [32]
000000 d1 78 1c 3c 28 66 8b 3d 00 0f 01 3d b8 7a 14 3e
       0.009550289 0.06806594 0.031508446 0.14499938
000010 78 4f 03 be 62 86 03 3d 81 2d 49 3d cd ab 27 3e
       -0.12823284 0.03211058 0.04911566 0.1637413
000020 c0 fe 17 3e 52 28 eb bc 6a 9d 83 be 20 27 cf ba
       0.14843273 -0.02870575 -0.25706035 -0.0015804507
000030 2e 7f 19 be 82 09 43 3c 81 c5 0c be 97 41 14 3d
       -0.14989921 0.011904122 -0.13747217 0.036195364
000040 ba f2 cf 3d ac 1f dd 3b ab e5 22 3d 57 01 f7 bc
       0.10153718 0.0067481603 0.03976981 -0.030152006
000050 a0 1b e4 3d 7c c2 bf bd f0 0d 5e be a6 31 13 be
       0.111380816 -0.09363267 -0.21685004 -0.14374408
000060 c0 8f c6 3d 37 78 0d 3e d9 93 00 bc dd bd f3 3d
       0.09695387 0.1381539 -0.00784775 0.11901448
000070 8c 77 4f 3d 76 ec a2 bd 62 63 a7 3d ca 6b 37 bb
       0.05065112 -0.079552576 0.08173253 -0.0027987831

context_transformer_1/bottleneck_input/norm/add f4 [32]
000000 a7 34 53 3c 10 cb 06 be ca 2a c0 bd 66 00 a7 bc
       0.012890971 -0.131634 -0.09383161 -0.020385932
000010 87 e6 1f 3d eb 6c 2d bc 31 1c d8 bd ea de e6 3c
       0.039038207 -0.01058505 -0.10552252 0.028182466
000020 34 1c 5b 3e 8a 45 61 3d 5f 04 3e 3d 7d 59 d5 bc
       0.21397477 0.05499796 0.046390887 -0.026043648
000030 5c dc 64 3e ef e8 cd 3e 5e 1e 31 3e 36 66 7c 3d
       0.22349685 0.40216777 0.1729674 0.061620913
000040 e5 6a 12 3d 4e 27 04 be 02 1b 0a 3d c4 62 3d 3e
       0.035746474 -0.12905619 0.033717163 0.18494707
000050 32 96 72 3d 7b 34 7a bd 99 0d f9 bd 83 74 f3 bd
       0.05922527 -0.061085206 -0.12160797 -0.11887457
000060 ee 38 5f bd de 75 eb 3d f0 2e 9f bd a7 29 1a 3e
       -0.05449765 0.11497091 -0.077726245 0.15054952
000070 b4 bb d8 3c 8b 57 ba bd c0 ce 2d bd 87 c7 39 be
       0.026456691 -0.09098729 -0.0424335 -0.1814252

mention_transformer_0/bottleneck_input/norm/add f4 [32]
000000 39 40 8b 3d 1f 92 81 bd be 98 a3 be 3e eb 80 bd
       0.06799359 -0.063266985 -0.3195247 -0.06294869
000010 3c e9 d0 bc 5e b7 2c be 09 73 1b be f2 68 21 3d
       -0.02550184 -0.16866824 -0.15180601 0.039406724
000020 d0 5d 27 be 7a 1b b2 bd 76 d2 2a bd 43 50 31 be
       -0.1634438 -0.08696647 -0.041704617 -0.17315774
000030 e4 3e d3 3c 22 24 f0 bc 84 4c 1f be 4a 51 49 bd
       0.025786825 -0.029314104 -0.15556532 -0.04914979
000040 76 e5 33 bd 04 8f 47 3d 2a be 39 3e a0 bb 32 3c
       -0.043920003 0.048720375 0.18138948 0.010908991
000050 9c ca 80 3d 93 6e 31 bc a6 1f 41 3e 2c d3 de 3d
       0.06288645 -0.010829586 0.18859729 0.108801216
000060 54 0b 03 be ce 28 6f 3e 94 b5 71 3e ec e8 bc 3e
       -0.1279729 0.2335541 0.23604423 0.36896455
000070 90 27 88 be be db a5 bd 78 4a 92 3c 46 4e 38 be
       -0.26592684 -0.08098553 0.017857775 -0.17998609

mention_transformer_1/bottleneck_input/norm/add f4 [32]
000000 e2 2f da 3d 2a 3e 86 3d 06 b5 4d 3c f2 36 61 3d
       0.10653664 0.065548256 0.012555366 0.05498404
000010 b0 02 76 be a1 29 6e bd 17 57 05 bd fe 3b af 3e
       -0.24024463 -0.05814517 -0.03255376 0.34225458
000020 a0 0b a8 3d 92 0e f7 bd 52 98 f4 bd ae f6 10 bc
       0.08205342 -0.12063326 -0.11943115 -0.0088478755
000030 d0 41 82 3c 54 89 07 be 4e 02 83 3d 41 b7 22 be
       0.015900522 -0.1323598 0.06396924 -0.15890218
000040 38 bb 13 3e d4 ad 03 be 30 25 5a 3a f7 68 9e 3d
       0.14426887 -0.12859279 0.00083215814 0.07734864
000050 ba f2 1b be 00 46 32 3a 4a d4 03 3d 86 c5 5d 3d
       -0.15229312 0.0006800592 0.032184877 0.05414345
000060 93 4e 2d 3d 3c 3d 96 bd 3c 2c 74 be b6 d1 f0 bd
       0.042311262 -0.07335898 -0.23844999 -0.11758749
000070 84 b1 31 be ea e4 ee bc db 9c 3c 3d 06 1e 27 3d
       -0.17352873 -0.02916189 0.046048027 0.040800117

context_transformer_0/attention/value/add;context_transformer_0/attention/value/einsum/Einsum;context_transformer_0/attention/value/add/ReadVariableOp/resource f4 [32]
000000 8d 1a ac 38 94 13 e1 bc 88 18 dc bc f8 2d 07 3d
       8.2065446e-05 -0.027475156 -0.026867166 0.033002824
000010 82 80 4f 3b 7b b2 1d bd a9 44 3e bd 3e 35 11 3d
       0.003166229 -0.03850029 -0.0464522 0.035451166
000020 94 b7 f0 3c 6b 4c b1 bd 5f c9 7a bd 55 b9 88 bd
       0.029384412 -0.08657154 -0.0612272 -0.06675974
000030 97 1f 5f bd d2 b6 b4 bd 5f 01 75 3d db f5 9a 3d
       -0.054473486 -0.08823933 0.05981576 0.075664245
000040 ef 6e 9e bd 6f 20 94 bd a3 d0 9b bd 44 aa 41 bd
       -0.07736003 -0.07232749 -0.07608154 -0.04728152
000050 43 b9 7d 3d 14 eb b2 bc 90 19 a4 3d 54 fc 98 3d
       0.061944257 -0.02184061 0.08012688 0.07470003
000060 f7 1d 4c 3d e0 c5 b0 bd 67 74 a3 bd 2b aa b4 bd
       0.049833264 -0.08631492 -0.07981186 -0.088215195
000070 b8 24 63 3d 72 7d db bc bb f4 4a bd 4f f2 82 3d
       0.05545494 -0.026793215 -0.0495498 0.06393873

context_transformer_0/bottleneck_input/norm/mul f4 [32, 32]
000000 9f 4d 26 bd e1 a3 cf bd d5 e0 d2 bd 8f 50 f7 bd
       -0.04060137 -0.10138679 -0.102967896 -0.12075912
000010 e2 13 92 3d 7f 42 35 bd 9a 76 17 bd ca 2b 5b bc
       0.071326986 -0.04425287 -0.03697834 -0.013377139
000020 c8 d7 a3 3d 51 f3 3b 3e ad e9 d9 3d 26 e6 de bb
       0.080001414 0.18354537 0.10640273 -0.006802338
000030 5a a1 79 3d 22 c6 6b 3d cd 83 3f 3d 26 ec 8e bd
       0.060944892 0.057562 0.046756554 -0.069786355
000040 34 f5 1e be b0 9d 2b 3e cf d0 91 bd c7 70 00 be
       -0.15523225 0.16759372 -0.07119905 -0.12543021
000050 7e 5b 30 bd 07 be 2f 3e 8f eb bf 3d 2f 33 4e 3d
       -0.043056004 0.17162333 0.09371101 0.05034178
000060 15 6f e8 bc 19 7a ea 3c 20 71 a9 bd 70 06 f5 3d
       -0.02837328 0.028622674 -0.0827353 0.119641185
000070 c9 e9 0c be fa 2e 0f 3c 2f ac a0 bd d4 32 35 3d
       -0.13761057 0.008739227 -0.078453414 0.044237927
000080 86 c9 d1 3b 70 6f 9f be 17 73 07 3e 82 c7 e2 bc
       0.0064021973 -0.31139708 0.13227497 -0.027683023
000090 e1 55 a7 3e 36 38 79 be 22 d1 93 be a8 40 02 be
       0.32682708 -0.24337849 -0.28870493 -0.12719977
0000a0 f2 4a 08 3e 82 0c 13 3e 9f fb 13 be 8a db 0d be
       0.1330984 0.1436024 -0.14451455 -0.13853279
0000b0 19 f4 ea bb 01 c8 7f 3d 4d 56 ee 3d a0 17 8c be
       -0.007170212 0.062446598 0.11637554 -0.27361774
0000c0 f2 4e f7 bd 90 e6 db bb 0a f4 a4 3e 17 b5 4c be
       -0.120756045 -0.006710835 0.32217437 -0.19990955
0000d0 6f 21 18 be 80 77 15 3f 72 00 13 3e 7c cb 58 3e
       -0.14856504 0.5838547 0.14355639 0.21171373
0000e0 88 ae cc bd 09 5a a1 3e 9a 4c b7 bd a8 14 68 3e
       -0.09994227 0.31514004 -0.089501575 0.2266413
0000f0 7c fa 35 3e 08 72 37 bd 2a 56 79 be c0 f4 2d be
       0.17771333 -0.044786483 -0.24349275 -0.16987896
000100 6c e6 e7 bc 91 dc 6b 3e 63 96 1b be 50 57 f8 bd
       -0.028308116 0.23033358 -0.15194087 -0.121260285
000110 0e e2 9a bd fe 7f 61 bb 9a 9d 5e bd 74 cb 06 be
       -0.07562648 -0.0034408565 -0.05434952 -0.13163549
000120 3e 2f 67 be a5 ff 92 bd b4 44 cc be 9d d2 bc bb
       -0.22576615 -0.071776666 -0.39896166 -0.0057624117
000130 af c4 0c bf 8c 86 26 be 95 4f d0 be 69 b3 28 3e
       -0.54987615 -0.16262263 -0.40685716 0.1647469
000140 81 ed ac 3d df b5 80 be f1 5b b6 3e 0d 21 c6 3d
       0.08443738 -0.25138757 0.3561702 0.09674273
000150 2f 35 06 3e cf 82 a5 3c fb ec 2a be bb 65 b6 bd
       0.13106225 0.020203976 -0.16691963 -0.08906122
000160 f5 5a 07 bc 56 ba e2 be 44 25 ce be a6 21 09 bf
       -0.008261432 -0.44282788 -0.40262806 -0.5356697
000170 b4 8a 34 be c1 d4 e7 3d 5b fb ce bd cf 52 95 be
       -0.17631036 0.113198765 -0.10106536 -0.2916474
000180 5d 76 06 3e bb 41 9a be c6 e8 e3 bd 03 23 9e 3e
       0.1313109 -0.30128273 -0.111283824 0.30886087
000190 de b4 73 3e 32 49 23 3f b2 ed 0d 3f 08 88 cd be
       0.23799464 0.6378356 0.5544082 -0.40142846
0001a0 06 ea 89 3e 7a ec 1b 3e 0e 7d 12 bd 90 5d 15 bf
       0.26936358 0.15226927 -0.035763793 -0.5834589
0001b0 bd b7 8b 3e fd d8 06 be 87 02 a3 be 07 e0 14 bf
       0.2728862 -0.13168712 -0.31837866 -0.5815434
0001c0 9c 01 08 bc 1e 9f 1b bf 6e 67 cf 3d 85 d5 4f 3d
       -0.008301165 -0.6078967 0.101271495 0.050740737
0001d0 38 35 4d bf ad 09 3b 3f ee 74 f7 bc 20 75 b2 3e
       -0.8015933 0.7306164 -0.030207124 0.34854984
0001e0 f4 c6 c6 be 21 d1 db 3c be 7c 86 bd 06 ca 18 3f
       -0.38823664 0.026833119 -0.065667614 0.59683263
0001f0 30 4d a9 be a5 f8 bb be ff c1 ec 3c 38 8e c1 3d
       -0.33066702 -0.36713138 0.028901098 0.09450954
000200 c2 79 87 bd ab 2d 15 3d 8a 0d 73 bc 15 a7 d6 3e
       -0.0661502 0.036420505 -0.014834771 0.41924348
000210 d6 c2 b7 bd 8e 05 cd bd 95 46 10 be 1c c0 53 3d
       -0.08972709 -0.10010825 -0.14089425 0.05169688
000220 39 92 f6 3e 20 89 99 be 22 b4 93 bd f1 1d b5 bc
       0.48158434 -0.2998743 -0.07212092 -0.022109004
000230 d3 db 32 3e 95 92 3c 3e fd de b8 3e 63 f0 ce 3d
       0.17466669 0.18415292 0.36107627 0.10104444
000240 2c 12 28 3d 6d 3e 39 3e 25 1c 10 be 1b 05 98 be
       0.041032955 0.1809022 -0.14073236 -0.29691395
000250 d5 79 12 bd dd a7 e9 3e 59 ad b1 be 74 99 43 bd
       -0.03576072 0.45635882 -0.34702566 -0.047753766
000260 42 11 9c 3d 18 61 52 3e 12 94 80 3d 47 1d 68 be
       0.07620479 0.20544851 0.06278242 -0.22667418
000270 e3 1c 6b be 4a ca a1 3e 84 e9 8b be bd a3 ee bd
       -0.22960238 0.31599647 -0.27326596 -0.11652324
000280 86 c9 f7 bc 6f 07 77 bd 06 67 42 3d 49 e4 c4 bd
       -0.030247461 -0.060309824 0.047461532 -0.096138544
000290 01 02 ac 3c c2 da 8c bc 8f 9f d3 3c 27 ba 8d 3d
       0.02099705 -0.017194156 0.02583292 0.06920271
0002a0 47 e3 2a 3e ea 41 35 be ae aa 6f 3d 8c c5 60 bc
       0.16688262 -0.17700925 0.058512382 -0.013718974
0002b0 3a ec ee 3d bd 8e 58 bd 4f 2a 94 bd ba c1 75 3e
       0.116661504 -0.0528705 -0.07234632 0.23999682
0002c0 7c 77 51 bd d9 9c 8b 3e a8 6a 42 3e 35 28 99 3c
       -0.05113934 0.27268103 0.18985999 0.01869593
0002d0 2c b5 d5 bd 5d bf f3 bd 7a 58 8e 3d a2 8e d5 3c
       -0.104349464 -0.11901734 0.06950469 0.02606899
0002e0 89 40 4b bd 90 56 41 be 3c 56 e0 bd c4 84 70 3e
       -0.049622092 -0.18880677 -0.10953948 0.23488146
0002f0 d9 87 ad 3d 1f ce bf 3c ef 4e 87 bc 3a be b1 bd
       0.084731765 0.023413716 -0.01651713 -0.08678861
000300 fe 0f 62 be c5 8e bb 3c 89 9e 61 bc bb c9 98 be
       -0.22076413 0.022895226 -0.013770708 -0.29841408
000310 06 2a a2 be c6 6e 3d bd d1 50 d1 bd ca f6 36 3d
       -0.31672686 -0.04624822 -0.10220493 0.04466895
000320 06 01 2a be 44 68 ec 3e 81 73 87 3d 51 b5 25 3e
       -0.16601953 0.46173298 0.066138275 0.16182448
000330 22 b7 77 3d 00 91 2a bd 18 40 6e bd 5e 2e 1b 3b
       0.060477383 -0.04164219 -0.058166593 0.002367876
000340 ca e4 80 3d 00 47 48 be 80 3a 92 bd 34 96 37 be
       0.06293638 -0.19558334 -0.07140064 -0.17928392
000350 98 f6 dd 3c 98 23 68 be d1 8c 19 3e 0e b4 20 3e
       0.027095124 -0.22669828 0.14995123 0.15693685
000360 51 34 32 3d c6 74 fb bd b9 7e ee 3e 8d 76 49 be
       0.043506924 -0.12278132 0.46581057 -0.1967413
000370 13 0e 32 be 71 14 97 3e a8 01 11 3c c5 38 75 bc
       -0.17388181 0.29507783 0.008850493 -0.014967148
000380 7d 63 89 be c5 18 af 3d f5 7a e3 be 38 80 cd be
       -0.26833716 0.08549646 -0.44429746 -0.40136886
000390 11 95 1f 3c fc be 1b be e1 da ec 3d 01 f5 23 bf
       0.00974013 -0.15209574 0.11565185 -0.6404572
0003a0 47 fd d0 be 3a aa 0a 3f b0 ce 39 3b fe 7b aa 3c
       -0.40818235 0.54165995 0.0028351955 0.020811077
0003b0 0d 78 4d be af 93 24 be 1f e9 67 3e 7e 94 0c 3d
       -0.20065327 -0.16071962 0.22647522 0.0343213
0003c0 58 3c c2 be ae 7e b8 be 23 d3 af be 59 0b 0e 3c
       -0.37936664 -0.3603415 -0.34340772 0.008669698
0003d0 7c f0 40 3e be b8 22 bd 52 02 e4 3e 47 1a c4 3d
       0.18841738 -0.039726965 0.4453302 0.095753245
0003e0 65 be b1 3e 36 c6 06 bf 73 96 20 be 92 3e 8a be
       0.34715572 -0.52646196 -0.15682392 -0.27000862
0003f0 23 49 de bc 91 db c9 3c ce 78 fc 3b 84 82 8e 3e
       -0.027134484 0.02464083 0.0077048307 0.2783395

context_transformer_0/kq_shared_bottleneck/norm/mul;context_transformer_0/kq_shared_bottleneck/norm/add;context_transformer_0/attention/key/einsum/Einsum;context_transformer_0/attention/key/add;context_transformer_0/attention/value/einsum/Einsum;context_transformer_0/attention/key/add/ReadVariableOp/resource f4 [32]
000000 8b 86 8e 3c ab 87 a2 bd 02 9d 81 3d 0e 4e 0d bd
       0.01739814 -0.07936033 0.06328775 -0.034498267
000010 f0 fd 66 3d 09 ab d2 bd 59 d8 e7 3c f1 20 b0 bd
       0.056394517 -0.102865286 0.028301405 -0.08600033
000020 a9 71 2d bd 7e fe b2 3d a1 f8 1a 3e 49 62 d5 3d
       -0.042344723 0.08739947 0.15133907 0.10419137
000030 f1 47 86 3d a8 04 73 3d d3 fe c1 bd 56 3c 31 be
       0.065566905 0.059330612 -0.09472432 -0.17308173
000040 bd 20 87 3d 6e 16 0c bc 34 a9 a1 bb 10 46 10 3c
       0.06598041 -0.0085502695 -0.0049335007 0.008805767
000050 dc c8 14 3c 31 e8 ac bc b5 30 46 bd dd ce b6 3b
       0.009081092 -0.021106811 -0.048386294 0.0055788592
000060 5e 64 2e 3d 3e 33 78 bd fa 19 0c bc e2 ce 76 bc
       0.042576186 -0.060595743 -0.008551115 -0.015063973
000070 c0 9f a0 ba 6a 07 7c bd 0d d9 d9 3b f8 33 be bd
       -0.001225464 -0.061530508 0.006648189 -0.09287256

context_transformer_0/kq_shared_bottleneck/norm/mul;context_transformer_0/kq_shared_bottleneck/norm/add;context_transformer_0/attention/key/einsum/Einsum;context_transformer_0/attention/key/add;context_transformer_0/attention/value/einsum/Einsum;context_transformer_0/attention/key/add/ReadVariableOp/resource1 f4 [32, 32]
000000 3e 7b d8 3d 2d 63 af 3d 46 fa 02 be 50 a8 3b 3d
       0.105703816 0.08563838 -0.12790784 0.045814812
000010 03 c9 1e 3e 18 62 46 3e ee 76 35 bd 0c 60 b9 bd
       0.15506367 0.19373357 -0.044302873 -0.090515226
000020 7a 6e 33 be e3 c9 75 be 22 c2 55 be 25 39 cb bd
       -0.17522612 -0.24002795 -0.20874837 -0.09923009
000030 8b 3b a7 bc 45 db 22 3e 05 02 63 3c 1b 18 3d 3e
       -0.020414134 0.15903957 0.013855462 0.18466227
000040 5c 40 34 bd 64 39 8f bb b4 06 52 be 32 08 b7 3d
       -0.04400669 -0.004370855 -0.2051037 0.0893711
000050 3d 01 52 3e 82 7e 08 be 9a d4 22 3e f0 5f 1e 3e
       0.20508285 -0.13329509 0.15901414 0.15466285
000060 12 97 96 3d 06 3f 3c 3c c3 78 95 bd 38 7b aa 3d
       0.07353033 0.011489635 -0.07298424 0.08324283
000070 e9 d1 85 3d 3d cf 1c 3e b5 36 90 bc 6d 43 13 3d
       0.06534178 0.1531343 -0.017604211 0.035952974
000080 87 7c 04 be 4e 69 0f be f2 f1 3a 3e 95 1b cd bd
       -0.12938128 -0.14005014 0.18256357 -0.100150265
000090 03 15 5b be b1 e6 73 be 4a fc fc bc 71 38 f9 3d
       -0.21394734 -0.2381847 -0.03088202 0.121689685
0000a0 61 37 9d 3e 83 4a 54 3e f9 8f 35 3e 54 8d 23 3e
       0.30706313 0.20731549 0.17730702 0.15971881
0000b0 62 97 b1 3d 46 9c 33 be 26 36 a0 bd ce d1 29 be
       0.08671452 -0.17540082 -0.07822828 -0.1658394
0000c0 e5 c8 db 3d 88 cd 72 3d 70 69 41 3e 00 c7 17 be
       0.10731677 0.05927804 0.18887877 -0.14822006
0000d0 49 b4 79 be c3 56 36 3e ec 3f 3a be bd 52 f9 bd
       -0.2438518 0.17806534 -0.18188447 -0.12173984
0000e0 a3 1c cb bd c0 d9 8f bd 17 0f e8 3d 74 57 9f bd
       -0.099175714 -0.070239544 0.11331003 -0.07780352
0000f0 33 80 fd bd 76 d2 3b be 21 5e a9 3d 69 e1 e5 bd
       -0.12377968 -0.18342003 0.08269907 -0.11224634
000100 5c 65 29 3e 73 d5 2b 3e d5 28 49 be 4a b0 e8 3d
       0.16542572 0.16780643 -0.19644482 0.113617495
000110 b1 73 6b 3e c2 b1 78 3e 18 b0 89 3c 62 4b 0b be
       0.22993352 0.24286559 0.0168076 -0.13602975
000120 65 ba a2 be d8 51 6d be 92 8c 3c be af 45 20 be
       -0.31782833 -0.23175752 -0.18412998 -0.15651582
000130 bc d4 90 bd 90 b3 55 3e 1d 2b 93 3d 59 dd 42 3e
       -0.07071826 0.20869279 0.071859576 0.1902975
000140 01 e7 01 be 8e cf 32 bd 6e 2e 68 be c5 1a 04 3e
       -0.12685777 -0.04365497 -0.22673962 0.12900837
000150 9c 41 8c 3e 3d 9c 4b be b8 bd 44 3e 8b f9 24 3e
       0.27393806 -0.19883819 0.19212997 0.16110818
000160 cf a6 0b 3e 9e b3 64 3d 57 37 07 be 18 97 45 3d
       0.13637851 0.05583536 -0.13204704 0.048239797
000170 2b 57 0b 3e ab 66 4b 3e fe db ce bd 85 81 d4 3d
       0.1360747 0.19863383 -0.10100554 0.103762664
000180 ac 07 41 bd b3 8c 39 bd 77 62 ff bd 26 a4 3a bd
       -0.047126457 -0.045300197 -0.124699526 -0.0455667
000190 83 96 e0 3d ed 2c 89 3d 33 2a 23 be d9 b5 44 3e
       0.10966208 0.06698022 -0.15934066 0.19209994
0001a0 9a df 62 be be 98 6b be f9 ea 2b be 9c e8 f2 3c
       -0.2215561 -0.23007485 -0.16788854 0.029651932
0001b0 b4 c2 75 3d e3 4b ca 3d 27 48 33 be 94 41 b7 3d
       0.060000136 0.098777555 -0.17507993 0.08948055
0001c0 a1 3e da bc 3e e5 55 3e 73 7d 83 be 14 6d 39 be
       -0.026641192 0.2088823 -0.25681648 -0.18108016
0001d0 c6 96 59 3e ee 06 7e bd dd 48 dc bb 9a 85 5f 3e
       0.21248922 -0.062018327 -0.006722553 0.21828309
0001e0 57 ac 7f be 68 b5 c3 be 0c bb f6 bc 36 4e 15 3d
       -0.24968086 -0.3822434 -0.030118488 0.03645154
0001f0 fb 88 da bd 1d 31 ba 3c c1 ea 83 3d a0 c1 b8 be
       -0.10670658 0.022728497 0.0644126 -0.36085224
000200 f2 c6 23 3e 69 80 fd 3d 6d 4a 3f be bd a6 bd 3d
       0.1599386 0.12378008 -0.18680735 0.092603184
000210 61 9d 45 3e 33 ed 73 3e 0a 1a d4 3c 44 d3 c7 bd
       0.19298317 0.23820953 0.025891323 -0.097570926
000220 80 48 93 be fc d8 46 be 4c f0 2e be 7c 5e 04 be
       -0.2876625 -0.1941871 -0.17083853 -0.12926668
000230 f6 29 83 bd 79 ff 3e 3e f3 b7 61 3d f7 df 1a 3e
       -0.06404488 0.18652143 0.05510707 0.15124498
000240 da 58 ef bd 3d bb 69 bd 78 1b 3a be 32 19 e6 3d
       -0.11686869 -0.05706333 -0.18174541 0.112352744
000250 a0 4e 85 3e a5 26 44 be a2 18 32 3e 64 01 18 3e
       0.2603655 -0.19155367 0.17392209 0.1484428
000260 e4 30 f7 3d a8 1a 58 3d cc da 01 be ab 92 7c 3d
       0.12069872 0.052759796 -0.1268112 0.06166331
000270 83 22 e0 3d 0b 56 54 3e 06 f1 8a bd 99 2e f8 3d
       0.109440826 0.20735948 -0.06784253 0.12118263
000280 0e f3 2b bc 60 7e 91 3b 23 29 e1 3d 29 08 cf bd
       -0.0104949605 0.004440114 0.10994174 -0.10108978
000290 cb 42 99 bd 63 c1 6d 3c 0d fb fd bd 9d 2d 45 bd
       -0.07483443 0.014511439 -0.124014 -0.048139203
0002a0 09 cd bf 3d 23 d8 24 3e 2c a8 16 bd 28 2f 00 3d
       0.09365279 0.16098075 -0.036781475 0.03129497
0002b0 35 b4 54 3e 4e 0a be 3d 8b 0b 42 bd be 4f 02 3f
       0.20771869 0.09279309 -0.04737429 0.50902927
0002c0 b1 52 d0 3d 3a b7 e1 3d a9 d0 6f be ff 7d c4 3c
       0.10172022 0.11021276 -0.23419441 0.02398586
0002d0 5e b5 51 bd c2 d6 61 3d e8 80 5c 3e 99 40 9e 3e
       -0.051198356 0.05513645 0.21533549 0.3090866
0002e0 6b f6 49 3e e8 29 81 bd 50 cd bc bc 1b f6 f8 3d
       0.19722907 -0.06306821 -0.02304712 0.12156316
0002f0 9f 61 97 bd b8 da a2 bd d7 bf c1 3d 46 6e b8 bc
       -0.073916666 -0.079518735 0.09460419 -0.02251352
000300 3c f9 cd 3c 4b e1 a8 3b 37 c7 06 be 37 1d 86 3c
       0.025143258 0.00515381 -0.13161932 0.016371353
000310 86 b8 0b 3e 0d 2b 14 3e 35 eb 92 bd aa 4c d7 3c
       0.13644609 0.14469548 -0.071737684 0.026281673
000320 90 ce 3a be 39 bc 6e be 3b a1 39 be 87 80 21 bd
       -0.1824286 -0.23313989 -0.18127911 -0.039429214
000330 e7 c0 96 3c 5f 96 83 3d 2c b8 80 bd 5a 2f 08 3d
       0.01840253 0.064251654 -0.06285128 0.033248283
000340 ca 1e 63 bd 0b b0 9d 3d 92 ea 07 be f8 30 8d bb
       -0.055449285 0.07699593 -0.13273075 -0.004308816
000350 f8 59 37 3e 69 69 d0 bd 51 bb 9d 3d dc d5 af 3d
       0.17905414 -0.101763554 0.077017434 0.08585712
000360 74 45 b7 bd aa 17 e8 bd 1d b0 ce bc 6f 40 7f 3d
       -0.08948794 -0.113326386 -0.025230462 0.062317308
000370 c0 26 9e 3b bf 7d ae 3d 3a a0 d8 3a 8b 53 af bd
       0.0048263967 0.08520078 0.0016527243 -0.085608564
000380 eb fe 9a bc ea 82 a0 bb f5 91 99 3d 31 64 e4 bd
       -0.018920382 -0.0048984187 0.07498542 -0.111519225
000390 69 ab 58 bd 6f 2b 87 3b af 32 db bd 95 64 53 bd
       -0.052897844 0.0041250507 -0.107030265 -0.051609594
0003a0 1d d1 ad 3d 35 c1 b0 3d ba 4e c2 bd 0e e0 03 bc
       0.08487151 0.08630601 -0.09487672 -0.008049024
0003b0 1d b0 49 3e 3c a9 a5 3c 70 5c 42 bd 93 2e 09 3f
       0.19696088 0.020222299 -0.047451437 0.5358669
0003c0 c3 4f fe 3d ff 95 cd 3d 6f 04 33 be e1 45 50 3c
       0.12417557 0.10038375 -0.1748216 0.012711973
0003d0 61 db 8c bd 83 f0 c3 3d d1 73 40 3e 2d 45 b1 3e
       -0.06877781 0.09567358 0.1879418 0.3462309
0003e0 e6 41 50 3e af 77 04 bd 8b f4 83 bd 92 61 ea 3c
       0.20337638 -0.0323407 -0.06443127 0.028610978
0003f0 5a 8e a2 bd 47 eb 9e bd 60 80 c8 3d 0c c0 15 bd
       -0.07937308 -0.07759719 0.097901106 -0.036560103

context_transformer_0/kq_shared_bottleneck/norm/mul;context_transformer_0/kq_shared_bottleneck/norm/add;context_transformer_0/attention/query/einsum/Einsum;context_transformer_0/attention/query/add;context_transformer_0/attention/value/einsum/Einsum;context_transformer_0/attention/query/add/ReadVariableOp/resource;context_transformer_0/attention/Mul;context_transformer_0/attention/Mul/y f4 [32]
000000 72 39 35 3e be d1 4c be bc 3f 60 3e cc a8 b2 3c
       0.17697695 -0.20001885 0.21899313 0.021809004
000010 12 46 4a 3e 0c c6 12 3d 51 31 c7 3d 84 72 0b 3d
       0.19753292 0.035833403 0.09726203 0.034044757
000020 47 60 de 3d 26 d9 76 3d e2 cc 76 3e e6 1b 7c 3c
       0.10858207 0.060265683 0.24101594 0.015387511
000030 b9 3f 09 be 35 db 95 3d 18 8c ee 3d 1a 94 52 bd
       -0.13403215 0.07317201 0.116478145 -0.051410772
000040 f4 7a d2 bd bc 42 18 3c 23 62 aa bd 4e 08 48 bd
       -0.10277358 0.009293254 -0.08319499 -0.048836045
000050 2b c7 20 be ad 1a 32 bd 15 15 24 bd 66 1a 40 bd
       -0.15700977 -0.04348247 -0.040059168 -0.046900176
000060 a5 f9 70 ba 9c b5 ab bc 94 ea f4 3c 19 8e 01 3d
       -0.00091924734 -0.020960622 0.029897012 0.031629656
000070 15 83 8b 3d b0 52 fd bb 31 ea 63 bb a8 1d e2 bc
       0.06812111 -0.0077308044 -0.003477704 -0.027602032

context_transformer_0/kq_shared_bottleneck/norm/mul;context_transformer_0/kq_shared_bottleneck/norm/add;context_transformer_0/attention/query/einsum/Einsum;context_transformer_0/attention/query/add;context_transformer_0/attention/value/einsum/Einsum;context_transformer_0/attention/query/add/ReadVariableOp/resource;context_transformer_0/attention/Mul;context_transformer_0/attention/Mul/y1 f4 [32, 32]
000000 90 70 f2 bc 34 5c 48 bc 7b a7 45 bc cd c3 90 3c
       -0.02959469 -0.012229014 -0.012063856 0.01767149
000010 ac 7b 26 b9 30 91 87 3c 9c 5a 8a bc 8b 42 d4 3c
       -0.00015877065 0.016548723 -0.016888909 0.025910636
000020 76 3c 50 bc 50 ac b3 3d 9b ff 3d 3c 06 73 96 bc
       -0.0127097275 0.087731004 0.011596586 -0.018365394
000030 92 89 d5 bc 6a 06 73 bd 9a 6b 01 3d e2 ee cd 3c
       -0.026066575 -0.05933229 0.031596757 0.025138322
000040 e2 c4 1c bc 6c df ff 3a 4b 8c 4a 3d 5e 0d 18 3d
       -0.009568425 0.0019521541 0.0494502 0.037122123
000050 89 fd 89 3c f6 87 17 bc a7 0f 2e bc ac 2f 62 3a
       0.016844528 -0.009248724 -0.010623849 0.00086283195
000060 07 ce 7f bd 53 5e 1e 3d 8c 69 6e 3d a1 3f fc bc
       -0.062452342 0.038664173 0.058206126 -0.03079206
000070 15 b5 e3 3c bc dc bb 3c c4 57 31 ba e1 c4 11 3d
       0.027796308 0.022932403 -0.0006765092 0.03558815
000080 61 97 3b 3d 1c a8 24 3d 3f 71 18 3c 52 38 83 bc
       0.045798663 0.040199384 0.009304344 -0.016018067
000090 d8 81 b8 3a 48 30 41 bc 5c 04 20 3c 73 56 35 bd
       0.0014076782 -0.011791296 0.009766664 -0.044271898
0000a0 66 72 9f 3c 42 c1 41 bd be c2 05 bc cc a0 59 3c
       0.01946373 -0.047303446 -0.008164106 0.013282966
0000b0 97 8d 98 3c 29 72 ac 3d f6 26 cb bc a1 bd dd bb
       0.018622203 0.08420212 -0.024798851 -0.0067669903
0000c0 98 36 b8 3b 84 3c bd bb 27 72 44 bd 3d 1d 7f bc
       0.0056217425 -0.0057750363 -0.047960427 -0.015570936
0000d0 2c 61 9b bc 1e 74 a3 3b 97 71 92 3c bd ac fe 3c
       -0.018967234 0.0049882075 0.01787643 0.031088227
0000e0 f3 44 aa 3d 18 6f 13 bc ce bc b3 bd 91 92 23 3d
       0.08313932 -0.008998655 -0.08776246 0.0399347
0000f0 cb 51 83 bc 18 35 a6 bb dc bd f6 3b 12 bc d0 bb
       -0.016030213 -0.0050722472 0.007529957 -0.006370076
000100 e8 e0 69 bd a5 74 15 bd 91 a6 89 bc c2 dd 16 3c
       -0.057099253 -0.036488194 -0.016803058 0.009208145
000110 3b db 34 3c 08 dd 74 37 d3 75 d1 bb 3d 70 35 3d
       0.011038597 1.4594996e-05 -0.0063922196 0.044296492
000120 fd 19 99 bc 8f b0 6f 3d fb c9 82 3c db d5 a9 bc
       -0.01868915 0.05851799 0.015965452 -0.020731857
000130 f8 3f 8e bc 7a 06 b6 bd 7c de 05 3d 6b 56 79 3c
       -0.017364487 -0.08887954 0.03268288 0.015218358
000140 f7 e8 f9 bb 7c a4 79 3b 90 1c 32 3d 1f 71 f3 3c
       -0.0076266485 0.0038092425 0.04348427 0.029717026
000150 e3 f3 cb 3c da 26 c4 bc ce eb f6 bc 39 c7 12 bd
       0.024896568 -0.023944307 -0.030141737 -0.035834525
000160 32 a1 b6 bd e6 bc 00 3d 19 73 a8 3d ee 9e 33 bd
       -0.08917464 0.031430148 0.08225078 -0.04385274
000170 c2 8b 0d 3d 24 cf 4a bb 21 56 20 bb 7c 53 35 3c
       0.03455711 -0.003094622 -0.00244654 0.0110672675
000180 38 b6 8c 3c 81 84 1e 3d 76 a0 31 3d 6f ed 13 bc
       0.017176732 0.038700584 0.043365918 -0.009028777
000190 bb 87 e9 bc 4c 5f 21 bd 97 1a 29 3c ca ab 31 bd
       -0.028507104 -0.039397523 0.010321281 -0.04337672
0001a0 4c 27 61 3d 76 51 59 3e 8c 98 c6 3d 92 d9 42 bc
       0.054969117 0.21222481 0.09697065 -0.011892693
0001b0 2b 92 13 3d ce ee e8 3b f1 37 43 bc 95 d7 0f 3e
       0.03602807 0.007108546 -0.011915193 0.14047082
0001c0 25 c5 d8 3c db 49 2b bc 59 fb b0 bc 84 18 e7 3c
       0.026461193 -0.01045462 -0.021604227 0.028209932
0001d0 b0 ef 77 bd 85 11 1d 3d 3a 7a cc 3d 92 62 94 3d
       -0.06053132 0.038346786 0.0998425 0.07245363
0001e0 ec 61 89 3c cf ee 96 bb 6b 47 56 bc d3 ac 6c 3c
       0.016770326 -0.004606105 -0.013078551 0.014445501
0001f0 1a be bd bc ea ce 0f 3a a1 b4 ac 3c 26 14 54 3b
       -0.023161937 0.00054858497 0.021082224 0.0032360642
000200 fe 3f 66 bd fd b7 2c bd af 90 08 bb 42 27 72 3c
       -0.05621337 -0.042167652 -0.0020838191 0.014779868
000210 d9 61 34 3b e1 dd e6 3b 99 f1 72 bc 41 6f 38 3d
       0.0027524142 0.007045493 -0.014828109 0.045027975
000220 a8 ec d4 bc d9 0e 4e 3d fb 9a 04 3c 7b 90 ac bc
       -0.025991753 0.05030713 0.008093591 -0.021064987
000230 9b c0 bc bc c0 42 a9 bd c7 f3 bd 3c 57 da 26 3c
       -0.02304106 -0.08264685 0.023187531 0.010183892
000240 c6 fd 01 bb e9 63 ad ba cd 11 3d 3d 83 30 6e 3c
       -0.0019835099 -0.0013228628 0.046159554 0.014537933
000250 94 93 a5 3b 52 0d a3 b9 06 b5 ae bc 07 d0 cd bc
       0.005052993 -0.00031099707 -0.021326553 -0.02512361
000260 07 79 b1 bd bb b4 1f 3c d9 4c 8d 3d b4 4e 27 bd
       -0.08665662 0.009747679 0.06899423 -0.04084654
000270 25 f9 bc 3c ec 6a e8 3b f7 49 75 b9 0b e3 c4 3c
       0.02306802 0.007092824 -0.00023392575 0.024034044
000280 77 f2 4a 3d 13 5f 51 3d 7f 2f 8a bd 77 a0 a1 3d
       0.04954764 0.05111606 -0.067473404 0.07891934
000290 51 c0 8e 3d 07 69 99 3d c3 68 b5 3d f2 d7 0f bd
       0.06970275 0.074907355 0.08857872 -0.03511805
0002a0 2c f9 cc bd a0 e4 36 3d d6 8a 4a 3d 4b 5e 82 bd
       -0.10008463 0.044651628 0.04944881 -0.06365641
0002b0 b2 d1 61 bd f6 db 59 3d fb ff 56 3d 75 e1 00 bd
       -0.05513162 0.053188287 0.052490216 -0.031465013
0002c0 38 1d 8f bd 25 22 af bd f0 0a 5d ba 7a 25 90 3d
       -0.06987995 -0.085514344 -0.0008432111 0.07038398
0002d0 42 e2 f8 3d 69 82 9b bd ec 54 3c 3d 4a f1 6c bc
       0.1215253 -0.07593233 0.045979425 -0.014461825
0002e0 e8 86 9f 3c f6 e2 2e 3d 42 23 f5 bc c1 c4 85 bc
       0.019473508 0.042696916 -0.029924039 -0.016329171
0002f0 8b 12 74 3d cc ae 9c 3d b9 57 99 bd 8b e7 27 3d
       0.059587996 0.07650527 -0.07487435 0.0409923
000300 4d ba 8e bc dd 31 73 3c e4 8d dd 3c 85 f9 52 bc
       -0.01742282 0.014843431 0.027045198 -0.012876873
000310 0a b7 4a bc 04 75 56 bc 19 df a3 bc d8 42 8d bb
       -0.0123727415 -0.013089422 -0.020003842 -0.004310947
000320 bf 7d be 3c 27 95 c9 3d d5 5c f0 3c c8 5d ad bc
       0.02325332 0.09842902 0.02934114 -0.021162882
000330 c2 bc 7a 3c 6c ba f7 bc af 74 a6 3a 2c 4a b3 3d
       0.015303792 -0.03024026 0.0012699569 0.087543815
000340 3a 82 5c 3c 34 1e 9f 3c 9c d2 57 3c d2 42 09 3d
       0.013458783 0.019423582 0.013172772 0.03351099
000350 58 d9 e8 bc e9 e7 be 3c 2c 7c ef 3c 08 0f 1d 3d
       -0.02842395 0.023303943 0.029234014 0.038344413
000360 91 1b 6b bc 7e 0d d4 3a 52 5f f9 3c d9 b4 18 bb
       -0.014349834 0.0016178337 0.03044096 -0.0023301153
000370 eb e6 e2 ba e1 fe 20 3a ce 1b d4 3c 9a 5a 1a 3c
       -0.001731125 0.00061414955 0.025892165 0.009421015
000380 26 22 15 3d 9e 4c 5a 3d f6 ac 96 bd d2 08 81 3d
       0.03640952 0.053295724 -0.073572084 0.063005105
000390 d8 5a 7d 3d 14 ac 75 3d e5 36 65 3d 0c 52 28 bd
       0.061854213 0.05997856 0.055960555 -0.04109387
0003a0 88 7f ca bd 02 b6 aa 3d 6f c5 77 3d c3 6c 67 bd
       -0.09887606 0.083354965 0.06049102 -0.056500208
0003b0 1a b3 7c bd 94 23 57 3d 82 ff 74 3d 6e 52 34 bd
       -0.061694242 0.052524164 0.059813984 -0.044023924
0003c0 4e 97 82 bd 08 58 8c bd bc 1e 72 3c f6 1a 3b 3d
       -0.06376515 -0.06852728 0.014777835 0.04568001
0003d0 02 7b c3 3d ed ff 87 bd 0c d6 39 3d 43 83 f0 3b
       0.09544946 -0.06640611 0.045370147 0.0073398664
0003e0 0f ad ae 3c 3d 00 23 3d 1a d7 13 bd 6f cc 3f bc
       0.021322755 0.03979515 -0.03609381 -0.011706456
0003f0 33 a3 4c 3d cf 37 68 3d fc 65 85 bd a9 2f 1d 3d
       0.049960326 0.05669385 -0.065135926 0.03837553

context_transformer_0/ffn_layer_0/intermediate_dense/einsum/Einsum;context_transformer_0/ffn_layer_0/intermediate_dense/Relu;context_transformer_0/ffn_layer_0/intermediate_dense/add f4 [32]
000000 a3 34 f4 bd 49 2b 8f be 7b cd bb be da 20 91 be
       -0.11924102 -0.2796271 -0.36680207 -0.28345376
000010 ae 9a a0 be da 7f dc be 83 6b 62 be 21 2d 93 be
       -0.3136801 -0.43066293 -0.22111325 -0.28745368
000020 94 60 af be 85 db a1 be 22 fc 13 be 45 37 a2 be
       -0.3425337 -0.31612793 -0.1445165 -0.31682792
000030 d8 d4 80 bd 9f 1a de be 27 31 b6 bd 03 9d 29 be
       -0.06290597 -0.43379685 -0.08896094 -0.16563801
000040 0f d3 cf be 96 91 bb be 43 ca f3 be 63 58 f9 bd
       -0.40590712 -0.3663451 -0.4761525 -0.121750616
000050 18 68 c7 be 8f 58 8a be 34 be 5b be 7c 31 db 39
       -0.38946605 -0.2702069 -0.21459275 0.00041807804
000060 be fb c5 be 03 a7 a4 be 95 33 b1 be f4 e4 db be
       -0.38668627 -0.3215867 -0.34609666 -0.42948115
000070 e1 f0 a7 be 44 dd ef be b4 65 c3 be e5 1d ba be
       -0.32800964 -0.468485 -0.3816353 -0.36350933

context_transformer_0/attention/norm/mul;context_transformer_0/attention/norm/add;context_transformer_0/ffn_layer_0/intermediate_dense/einsum/Einsum;context_transformer_0/ffn_layer_0/intermediate_dense/Relu;context_transformer_0/ffn_layer_0/intermediate_dense/add f4 [32, 32]
000000 7a 30 f0 bc 24 ac ca bc 40 6a 66 be 52 94 48 3d
       -0.02931999 -0.024740286 -0.22501469 0.048969574
000010 82 4e 18 3d a1 90 f3 bd 84 16 49 3e b5 86 e8 bd
       0.037184246 -0.1189282 0.19637495 -0.11353818
000020 66 0d b4 3d a5 fb 34 be f8 27 58 3e 71 86 d9 bd
       0.08791618 -0.1767412 0.21108997 -0.10621346
000030 fa d4 d4 3c fc 96 34 3e 11 89 da 3d 11 ae a1 3e
       0.025980461 0.17635721 0.106706746 0.31578115
000040 4e 9f 96 bd 79 6c c4 bc 7d cd 90 bd b1 e4 b6 3d
       -0.07354604 -0.023977505 -0.07070444 0.08930338
000050 f6 06 1e bd 24 70 fe 3d b1 1b 91 3e 7e 6c 1a bd
       -0.038580857 0.12423733 0.2834144 -0.037701122
000060 01 7a d0 bc 91 f5 dd bd 7c d7 b0 3d b6 ec 65 be
       -0.025448801 -0.10837854 0.086348504 -0.2245358
000070 94 0b af bd f5 d5 8a 3e 3d 29 c2 bd ee 15 69 3e
       -0.0854713 0.2711636 -0.09480522 0.22762272
000080 ff 4b 31 3e 4c 7d 77 bb 71 3a 3f 3e 56 82 59 3e
       0.17314146 -0.0037763892 0.18674637 0.21241125
000090 3e 87 b5 3b c7 a8 4c be b5 6e 27 be 6b dc 12 3e
       0.0055398038 -0.19986258 -0.16350825 0.14341895
0000a0 d2 7b 88 be 3a 2f 9d 3d 98 e0 2c 3e 69 03 b4 3e
       -0.26656967 0.076750234 0.1688255 0.35158852
0000b0 be 21 96 bd 43 98 5a 3c f6 d8 ba 3d 1d 05 e3 be
       -0.073306546 0.013341966 0.09123413 -0.4433984
0000c0 73 14 68 3d f9 1c f6 bd 87 05 97 3c ff 51 e9 bd
       0.056660127 -0.12017245 0.018435253 -0.11392593
0000d0 26 d2 69 be 70 65 27 bc 5e 11 0f 3d d5 cd cd 3e
       -0.22834072 -0.010217056 0.034928672 0.401961
0000e0 bc 45 90 bd e9 4f 80 bd 72 06 96 3c f3 58 04 be
       -0.07044551 -0.06265242 0.01831362 -0.12924556
0000f0 1d 1a ef 3c 43 e3 ad bd 80 53 87 be 36 72 de 3d
       0.029187256 -0.08490612 -0.26430893 0.10861628
000100 e1 3a 80 3d bc 63 c0 3d c2 5f ba bd 41 84 57 be
       0.0626123 0.09394023 -0.091002956 -0.21046545
000110 ff fe 8f 3c 02 34 d1 3c b0 79 1e 3e d9 de 86 be
       0.017577646 0.025537495 0.15476108 -0.26341894
000120 8e 20 0f be 81 b2 3c 3e 91 92 bd 3e fe eb 4d 3e
       -0.13977262 0.18427469 0.37025884 0.20109555
000130 c7 8a 8f 3e 40 18 81 3d ed 1b 4e bd a4 5b 65 3e
       0.28035566 0.063034534 -0.0503196 0.2239824
000140 34 b0 b4 bd be e6 7e be 85 e7 0a 3d 40 43 c3 bd
       -0.088226706 -0.24892709 0.0339122 -0.09534311
000150 b4 c3 77 bd b4 d4 d5 3c 23 08 79 3e f1 d7 45 3d
       -0.06048937 0.026102401 0.2431951 0.04830164
000160 c2 41 91 be 3a 70 bd 3d d4 b0 8d be 7e 99 13 be
       -0.28370482 0.09249921 -0.27673972 -0.14414021
000170 e8 2d 95 3d 2b e6 6f 3b 19 dd 10 3d 8e 58 14 bc
       0.072841465 0.0036605697 0.035367105 -0.009054316
000180 73 3b b4 3d ff dc 44 3e 98 ac a6 3e 77 30 73 3d
       0.088004015 0.19224928 0.32553554 0.05937239
000190 70 f7 de bc 57 13 18 3e 69 3b a4 be f6 65 50 be
       -0.027217597 0.14851128 -0.32076576 -0.20351395
0001a0 ea db 39 be 6d 9e 8b 3e cc ec 50 3e 46 ea d7 3e
       -0.18150297 0.27269307 0.20402831 0.42170924
0001b0 d3 49 b4 3d 1c cf ad 3d f1 19 0b 3e 55 40 ed 3d
       0.08803143 0.084867686 0.13584115 0.11584536
0001c0 a4 b4 f3 bd e3 94 99 be 1e 3f 11 bc a0 90 68 bd
       -0.11899689 -0.29996404 -0.008865146 -0.05677855
0001d0 52 7e 99 bc be 69 0f 3d 46 72 0f 3e 53 e0 2f 3e
       -0.018736992 0.035012953 0.14008436 0.17175417
0001e0 0a 57 d5 bd ea 48 75 be fe 4d ba be 7d 06 49 3e
       -0.10416992 -0.23953596 -0.36387628 0.19631381
0001f0 7d 9e 83 bc 81 ef 58 bd fd b6 6e be 70 9e 07 be
       -0.016066784 -0.052962784 -0.23311992 -0.13244033
000200 8a 75 02 3e 25 3a 0f 3e 30 cf 9d bd 6d 11 4f be
       0.1274015 0.13987024 -0.077055335 -0.20221491
000210 68 69 a3 bd dc 93 0f 3e 76 b7 5a 3e ca 36 6c be
       -0.07979089 0.14021248 0.21359047 -0.23067775
000220 84 9f 37 be 9d 58 83 3e 84 16 c8 3e e0 e7 8a 3e
       -0.17931944 0.25653544 0.39079678 0.27130032
000230 84 1b 9f 3e 86 f8 fa 3d d5 fe 88 bd 9b 76 1c 3e
       0.3107568 0.12254433 -0.0668923 0.1527962
000240 b8 82 04 be 48 04 85 be 63 87 04 3d 2e 84 04 3c
       -0.1294049 -0.2597983 0.032355677 0.008088155
000250 8a 93 a6 bc ba a9 02 3e 60 84 6d 3e 47 dc 6a bd
       -0.020334024 0.12760058 0.23195028 -0.05733898
000260 38 24 b3 be 31 44 80 3e c2 8e a1 be 10 f4 4a be
       -0.3498857 0.25052026 -0.31554228 -0.19819665
000270 05 18 2a bd 32 47 fb 3b c1 c4 13 3d 43 78 2e bc
       -0.041526813 0.0076683993 0.03607631 -0.01064879
000280 71 1a 2a bd a5 2e 77 3e 62 e6 17 3e 14 13 4d be
       -0.041529123 0.24138887 0.14833978 -0.20026809
000290 c5 27 5c 3e a5 d8 82 bd 39 65 e6 be 9e 67 d5 3d
       0.21499546 -0.06388978 -0.44999102 0.10420154
0002a0 a9 9a ae be 26 35 94 bd dd 86 89 3e e8 66 b4 3e
       -0.3410237 -0.072367 0.26860705 0.3523476
0002b0 c0 ac 41 3c 78 0f 23 3e 44 96 a6 3c 3c 10 0e be
       0.011820972 0.1592387 0.020335324 -0.1387338
0002c0 42 1c 88 3e dd c2 c9 bc 62 f0 d3 bd f6 8f 93 bd
       0.2658406 -0.02462905 -0.10348584 -0.07205193
0002d0 31 bb e9 bd 52 d0 08 3d 37 fe 17 3e 8f bb d9 3c
       -0.11412657 0.033401795 0.14843069 0.026578693
0002e0 f1 ae ad bd e8 97 94 bd 10 a4 0d 3d a2 63 77 bd
       -0.08480633 -0.07255536 0.03458029 -0.06039775
0002f0 a0 f0 25 bd 11 bb 9e 3d a4 b7 e2 bd 7f b9 08 be
       -0.04051268 0.07750524 -0.11070183 -0.13352011
000300 89 22 cd 3d a5 dc 07 3e f2 77 69 3e 0f 4d 75 3d
       0.10016353 0.13267763 0.22799662 0.059887942
000310 8a 3b 46 bb 7c 3b 00 3e 92 69 02 bf fe e3 13 bd
       -0.003024789 0.12522691 -0.5094234 -0.036106102
000320 35 7e 01 3c ef 63 7e 3e c3 7c 2d bd 9f 8e e2 3e
       0.007903625 0.24842809 -0.04235531 0.44249436
000330 b1 da a1 b9 32 db ca 3d 88 15 36 bc 34 fd 1e 3e
       -0.0003087125 0.099050894 -0.011113532 0.15526277
000340 c4 57 94 3c 00 07 a6 bd a8 8d a1 bc 18 82 05 bd
       0.018108256 -0.08106804 -0.019720867 -0.03259477
000350 5d a3 b6 bd d2 e1 ef bc 7e a9 8c bc 0b 89 be bc
       -0.08917878 -0.029282484 -0.017170664 -0.023258707
000360 42 57 52 3e 49 ea 54 be c0 7e c2 be 59 1b 7d 3e
       0.20541099 -0.20792498 -0.37987328 0.24717464
000370 23 79 d5 3d 87 b0 08 bd b9 81 d1 be d1 61 ac bd
       0.104234956 -0.033371475 -0.40919283 -0.084170945
000380 b2 f4 83 bd 5f 43 26 be eb 1c 01 bd 04 ad 23 3d
       -0.06443156 -0.16236638 -0.03152172 0.039959922
000390 d2 e5 bd 3d 8e c2 81 be c8 b6 8b bd 84 58 e9 3d
       0.0927235 -0.25343746 -0.06821972 0.11393836
0003a0 95 ed fa be 7c 43 ca bc 89 d3 92 3e a8 42 51 3d
       -0.49009386 -0.024690382 0.28677014 0.05108896
0003b0 ce 33 f7 bc 99 c8 43 3d 75 39 c6 3e 96 0e 10 bf
       -0.03017607 0.047798727 0.3871571 -0.56272256
0003c0 10 b3 e6 3c 8e d6 5e bd 54 00 b1 bd 1a 26 bb be
       0.028161556 -0.054403834 -0.08642641 -0.36552507
0003d0 6c fd fa bd d2 1d 9d bd 0a c5 a0 3c a7 c4 12 3d
       -0.12255368 -0.076717034 0.019625206 0.035832074
0003e0 54 9b 89 be 2b 61 8e be 26 cc 89 bc 8c 27 b3 bc
       -0.26876318 -0.27808508 -0.016820978 -0.021869443
0003f0 91 c6 5a 3e ce c8 ff bd cc 55 9a be 0b 7f fb bc
       0.2136481 -0.12489472 -0.30143583 -0.030700227

context_transformer_0/ffn_layer_1/intermediate_dense/einsum/Einsum;context_transformer_0/ffn_layer_1/intermediate_dense/Relu;context_transformer_0/ffn_layer_1/intermediate_dense/add f4 [32]
000000 70 f4 69 be b8 ce 57 be 03 9d d7 3d 16 40 42 be
       -0.22847152 -0.2107495 0.105279945 -0.1896976
000010 80 a9 2c be 36 fa fd bd be 64 23 3e af 24 c6 bd
       -0.16861534 -0.124012396 0.15956399 -0.096749656
000020 b2 78 1c be 44 34 39 3e a7 af 05 be eb 19 8d 3d
       -0.15280417 0.18086344 -0.13055287 0.06889709
000030 8a 92 46 be 26 6d 74 be 56 9b 3d be d5 05 95 bd
       -0.19391838 -0.23869762 -0.18516287 -0.07276503
000040 7d e7 b4 bd 55 7c 84 be cc c7 37 3d 6d f9 d2 be
       -0.088332154 -0.25876108 0.044868276 -0.41205922
000050 14 a1 6a 3d 73 90 05 3e 29 e5 88 be 06 4c ea 3a
       0.057282522 0.13043384 -0.26737335 0.001787544
000060 01 7c 2d be 16 da de 3b 07 e5 01 be 15 7e 96 bd
       -0.16941835 0.0068009 -0.12685023 -0.07348267
000070 38 04 dc 3d 56 e4 af bd 87 36 cb bd 9c 22 6c 3d
       0.10742992 -0.085884735 -0.0992251 0.057650194

context_transformer_0/ffn_layer_0/norm/mul;context_transformer_0/ffn_layer_0/norm/add;context_transformer_0/ffn_layer_1/intermediate_dense/einsum/Einsum;context_transformer_0/ffn_layer_1/intermediate_dense/Relu;context_transformer_0/ffn_layer_1/intermediate_dense/add f4 [32, 32]
000000 d8 d5 17 3e a9 3d 81 bd a4 e0 22 bd 8a 44 5c 3c
       0.14827669 -0.06310589 -0.039765015 0.013444075
000010 1b a8 9d 3d 4e ba e1 bd 12 9b 0b 3d 52 e0 dd bc
       0.07698079 -0.11021863 0.034083433 -0.027084503
000020 32 31 b6 bd d0 97 00 be ab a2 3c 3e 48 03 31 bd
       -0.08896102 -0.12557912 0.18421428 -0.04321602
000030 ed 50 35 3e 96 b3 15 bd 7e 8a 50 3d 88 67 3c 3d
       0.17706652 -0.03654822 0.050913326 0.045997173
000040 b5 46 b4 3d 81 a7 7c 38 9d 5e d7 3d 1e d3 cc 3d
       0.08802549 6.0237482e-05 0.10516093 0.10001205
000050 cd 6f 07 be af 75 f6 3d 76 25 4e 3e 9e c2 54 be
       -0.13226242 0.12034165 0.20131478 -0.20777366
000060 2e 68 3b 3d 9d 71 bb 3c 6f 8c 06 bd 01 bb 3c be
       0.04575365 0.022881323 -0.03284877 -0.18430711
000070 96 26 b2 bd 48 b1 c2 bc af f0 cd 3d a6 36 f9 bc
       -0.08698766 -0.023766175 0.100556724 -0.030421566
000080 f8 13 3e 3e 8d 90 85 3d 52 98 71 3e 08 d3 03 bf
       0.18562305 0.065217115 0.23593262 -0.51493883
000090 6f 06 79 be 97 02 a5 3d dc d3 9f bd f1 c6 1f 3e
       -0.2431886 0.080571346 -0.07804081 0.15603234
0000a0 fd 1e 1d be 31 e6 ae bd 36 35 c2 3c d4 df 2e 3e
       -0.15343852 -0.08539999 0.023707014 0.17077571
0000b0 51 60 8f 3d 90 9f 33 3e 06 8c 30 bd c8 3e 94 bd
       0.07000793 0.17541337 -0.043102287 -0.07238537
0000c0 d1 4b 9b bd fb 0f c9 3c c2 14 17 be 67 fb 3c 3a
       -0.0758282 0.024543753 -0.14754012 0.0007209093
0000d0 0a c3 56 3b 24 7e 24 bd 07 de 4f bb ce 87 84 3e
       0.003277006 -0.04015936 -0.0031718032 0.2588486
0000e0 46 30 7a bc c3 72 75 be 15 23 ac bc 9b 1f 96 be
       -0.015270298 -0.2396956 -0.021012822 -0.29320988
0000f0 d5 f9 06 3d 33 5d 51 3d 42 d1 cf be a3 38 9d 3e
       0.032953102 0.051114272 -0.4058934 0.30707273
000100 de f6 90 3e 79 a8 90 3d c6 34 f2 3d 08 3e 5e 3c
       0.28313345 0.070633836 0.11826472 0.013564594
000110 32 cf 83 bc c7 b3 a5 3d 77 52 b0 bd ca f3 36 be
       -0.01609001 0.080909304 -0.08609479 -0.17866436
000120 3f bd f3 3d db 86 37 3e 3a 38 b6 bc e9 c1 b8 bd
       0.1190133 0.17922537 -0.022243608 -0.090213604
000130 4b 43 a6 bd eb 4e 81 be 50 5b 12 3d 2a 49 f6 3d
       -0.08118304 -0.25255522 0.035731614 0.12025674
000140 30 40 ec be 59 b2 68 be b1 7f 23 3e eb 78 83 3e
       -0.4614272 -0.22724284 0.15966679 0.2567819
000150 97 d2 ae be 3d 1b e3 3b fc 1b 5b 3d 72 32 d5 3e
       -0.34145042 0.0069307373 0.053493485 0.4164005
000160 ac 76 6e 3d 20 df b2 be 33 af 16 be b3 d0 87 bc
       0.058218643 -0.34935856 -0.1471527 -0.016579008
000170 67 3a 85 be 23 a7 49 3d 7a a0 ea 3d 5e e0 62 be
       -0.2602112 0.04923166 0.1145639 -0.22155902
000180 5a 7f 44 3d f1 02 9b be 0a f7 35 bd c2 c6 04 3e
       0.047973014 -0.30275682 -0.044425048 0.12966445
000190 93 51 a0 3c 61 56 6d bc 1f 73 80 38 2a e6 92 be
       0.019570148 -0.014485926 6.1249586e-05 -0.28691226
0001a0 d8 35 3c 3c 4b 1b 0f 3e a7 27 86 3e 5c 12 80 bd
       0.011487447 0.13975255 0.26202127 -0.06253502
0001b0 12 8f 1c 3e 79 09 36 3d f8 97 54 bc 50 0d 07 3d
       0.15288952 0.044442628 -0.012975685 0.03297168
0001c0 92 5e fb bd 55 74 4f be aa a8 1b 3e 12 ab 9b 3d
       -0.12273897 -0.20259221 0.15201059 0.076009884
0001d0 e8 97 f8 bc b9 d1 14 3e c9 2b c3 3e 4c 70 ee bd
       -0.030345872 0.14533128 0.38119343 -0.11642513
0001e0 24 2e 85 be 54 62 35 3e a2 50 e1 3d a9 de 93 be
       -0.26011765 0.1771329 0.110017076 -0.28880814
0001f0 39 f9 ca bd 51 61 14 3e 53 08 4a 3e 79 c4 83 be
       -0.09910817 0.14490248 0.19729738 -0.25735834
000200 aa 1f 20 3e 82 af 2e bc b9 af ea bd 71 3a 8c 3e
       0.15637079 -0.0106619615 -0.11459298 0.27388337
000210 ea 2e 60 be 5f 32 28 be 19 9e 03 be 14 a6 e5 39
       -0.21892896 -0.16425465 -0.12853278 0.00043802022
000220 0e c3 1d 3d 75 0b fe bd 7d 03 5b 3e 64 21 59 3e
       0.038516097 -0.12404529 0.2138805 0.21204144
000230 25 64 0e be 00 86 3f be 9f f6 86 3e ed 03 24 3e
       -0.1390539 -0.1870346 0.26360032 0.16017123
000240 0f 37 f7 bd c8 6b 92 be cd fb 22 bd a3 aa a6 bd
       -0.120710485 -0.28597856 -0.039790917 -0.08138015
000250 d4 44 63 be 0e 67 89 3d d0 e5 d2 3d 3b 0a 51 3e
       -0.22194225 0.06709109 0.102977395 0.20414059
000260 ea ab 56 be b9 cd a1 be 5b 3c e2 bd b3 8e 8d be
       -0.20964018 -0.31602266 -0.11046668 -0.27647933
000270 de 40 0a 3d ce 0e b9 bc d1 79 7c be 9a 8d 38 3e
       0.03375327 -0.022590067 -0.24655844 0.18022767
000280 91 3d 60 be 7f cc 52 be 82 cd 40 3c 90 2d 45 3d
       -0.21898486 -0.20585822 0.011767747 0.048139155
000290 4f 78 45 3e 06 a2 33 be 5d b4 ae be be ef 62 be
       0.19284175 -0.17542276 -0.3412198 -0.22161767
0002a0 81 d6 ce bc c9 5d ff bc 10 e8 09 3e 68 d4 9c bc
       -0.025248768 -0.03117265 0.13467431 -0.019144252
0002b0 ac 27 01 be be 6b 97 be f6 34 e5 3c f0 9a d9 3b
       -0.1261279 -0.29574388 0.027979355 0.0066407844
0002c0 42 41 11 bd 83 72 0c bc b8 ce 0e 3e 59 ee f5 3d
       -0.035462625 -0.008572224 0.13946044 0.12008352
0002d0 6e df fd 3d 55 4b ee bd 31 04 42 3e ef 1e 97 3e
       0.123961315 -0.11635462 0.18946911 0.29515788
0002e0 9a 32 75 bc 17 3a 2c be 7b 54 0f 3d 19 38 af bd
       -0.014965678 -0.16819035 0.034992676 -0.08555622
0002f0 53 5b e8 bc 01 25 e0 3c 23 32 1b 3e fb b7 12 be
       -0.02836386 0.027361395 0.15155844 -0.14327995
000300 7b 9e 3d 3b 15 7f c4 bb 76 a9 ba bc de 32 56 bc
       0.0028933573 -0.0059965947 -0.022785883 -0.013073651
000310 01 9f 81 3d 22 f0 55 3d 84 82 4d bc 67 95 57 be
       0.06329156 0.05223096 -0.012543324 -0.21053086
000320 c4 fe 8e 3b 71 43 f4 3d e1 8b d1 3d 61 8e f5 bb
       0.0043638665 0.11926926 0.10231758 -0.0074937795
000330 ce d8 81 3e 6d dc 30 3e 17 a5 10 be 41 0e c5 3c
       0.2536072 0.17271586 -0.14125477 0.024054648
000340 28 21 87 bc 1e 20 29 be 66 e7 ec bd f5 64 5f 3e
       -0.016495302 -0.16516158 -0.11567573 0.21815856
000350 6a a0 d1 be 73 d0 44 3e 61 de 18 3e 64 a9 83 3d
       -0.409427 0.19220142 0.14928581 0.06428793
000360 ee 1c da bd ea 8f 87 3d 35 91 7c be 76 7a 9f 3d
       -0.10650049 0.06619246 -0.24664767 0.077870294
000370 96 76 37 be 8f 47 76 3e 59 bf 37 3d 41 9e 72 be
       -0.1791633 0.24050735 0.044860218 -0.23693182
000380 b3 00 a6 be 00 44 58 be 5d 93 74 be e0 bc 92 be
       -0.32422408 -0.2111969 -0.2388434 -0.28659725
000390 c0 4b 26 3e 03 b3 90 bc 92 30 84 bd cb 61 09 be
       0.16239834 -0.017663484 -0.064545766 -0.13416211
0003a0 20 85 a6 3d e6 d5 01 be c7 13 b8 3d 7e 33 cd 39
       0.0813086 -0.12679252 0.08988147 0.00039139012
0003b0 a9 49 48 3c 0a 3a 84 3d 7e 21 02 3e d8 f1 64 3b
       0.012224593 0.064563826 0.12708089 0.003493419
0003c0 8c 2d 55 3d 80 df 62 3d b7 46 c4 bd 93 2b 20 be
       0.05204539 0.055388927 -0.095838 -0.15641622
0003d0 76 53 6d 3e 33 24 b1 bd 62 11 4d 3b 28 1e 07 bd
       0.23176369 -0.086494826 0.0031290879 -0.032987744
0003e0 7b 34 80 3d 3c 43 9e 3d 58 a6 ba 3d e8 ad 1c be
       0.0626001 0.07727668 0.09113759 -0.15300715
0003f0 d8 8c e1 3d 59 af 1a bd c7 d1 0f bd 9c 7a 30 3d
       0.11013192 -0.03776488 -0.03511217 0.04308568

context_transformer_0/ffn_layer_2/intermediate_dense/einsum/Einsum;context_transformer_0/ffn_layer_2/intermediate_dense/Relu;context_transformer_0/ffn_layer_2/intermediate_dense/add f4 [32]
000000 3f 90 7e 3c c5 22 15 be ad c8 30 3e 5a 57 2d 3e
       0.015537321 -0.14564045 0.17264052 0.16927853
000010 7a 78 31 be de f4 bb bd 9b 0a 7d 3e a5 cc 0a be
       -0.17331114 -0.09177564 0.24711077 -0.13554628
000020 93 64 81 be 35 db 58 be 51 a6 91 be be 26 5d 3b
       -0.25272045 -0.21177371 -0.28447202 0.0033745016
000030 b5 d6 49 3d 3c 16 f6 bd f7 2c ee bd 29 65 a2 be
       0.049277026 -0.120159596 -0.1162967 -0.31717804
000040 9e 58 a8 bd 0a df 0a be 6b 25 65 be 1c 2b 13 be
       -0.082200274 -0.13561645 -0.22377555 -0.14371914
000050 ec 9a ee 3d d7 60 64 3e 6b 7d 03 be 74 bf ff bd
       0.11650643 0.22302566 -0.12840812 -0.12487689
000060 8b be 92 be da 38 52 bd 84 b8 a2 be 6e f5 75 be
       -0.28660998 -0.05132375 -0.317814 -0.24019405
000070 6e 52 de bd 0b b9 06 be da 83 3f be f1 ba 47 be
       -0.10855566 -0.13156526 -0.18702641 -0.19504906
